…
      "source": [
        "gc.collect()\n",
        "torch.cuda.empty_cache()"
      ]
    },
    {
      "cell_type": "markdown",
      "metadata": {},
      "source": [
        "#### Uploading model to GPU"
      ]
    },
    {
      "cell_type": "code",
      "execution_count": 44,
      "metadata": {
        "colab": {
          "base_uri": "https://localhost:8080/"
        },
        "id": "Dos1_Dcx8x99",
        "outputId": "e3565b42-f28a-47ea-a54b-ab720e44d455"
      },
      "outputs": [
        {
          "data": {
            "text/plain": [
              "ResNet9(\n",
              "  (norm15): BatchNorm2d(15, eps=1e-05, momentum=0.1, affine=True, track_running_stats=True)\n",
              "  (norm30): BatchNorm2d(30, eps=1e-05, momentum=0.1, affine=True, track_running_stats=True)\n",
              "  (norm60): BatchNorm2d(60, eps=1e-05, momentum=0.1, affine=True, track_running_stats=True)\n",
              "  (norm120): BatchNorm2d(120, eps=1e-05, momentum=0.1, affine=True, track_running_stats=True)\n",
              "  (norm200): BatchNorm2d(200, eps=1e-05, momentum=0.1, affine=True, track_running_stats=True)\n",
              "  (norm300): BatchNorm2d(300, eps=1e-05, momentum=0.1, affine=True, track_running_stats=True)\n",
              "  (norm360): BatchNorm2d(360, eps=1e-05, momentum=0.1, affine=True, track_running_stats=True)\n",
              "  (norm512): BatchNorm2d(512, eps=1e-05, momentum=0.1, affine=True, track_running_stats=True)\n",
              "  (conv15): Conv2d(3, 15, kernel_size=(3, 3), stride=(1, 1), padding=(1, 1))\n",
              "  (conv30): Conv2d(15, 30, kernel_size=(3, 3), stride=(1, 1), padding=(1, 1))\n",
              "  (conv60): Conv2d(30, 60, kernel_size=(3, 3), stride=(2, 2), padding=(1, 1))\n",
              "  (res60): Conv2d(60, 60, kernel_size=(3, 3), stride=(1, 1), padding=(1, 1))\n",
              "  (conv120a): Conv2d(60, 60, kernel_size=(3, 3), stride=(1, 1), padding=(1, 1))\n",
              "  (conv200): Conv2d(60, 200, kernel_size=(3, 3), stride=(1, 1), padding=(1, 1))\n",
              "  (conv200a): Conv2d(200, 200, kernel_size=(3, 3), stride=(2, 2), padding=(1, 1))\n",
              "  (res200): Conv2d(200, 200, kernel_size=(3, 3), stride=(1, 1), padding=(1, 1))\n",
              "  (conv300): Conv2d(200, 200, kernel_size=(3, 3), stride=(1, 1), padding=(1, 1))\n",
              "  (conv360): Conv2d(200, 360, kernel_size=(3, 3), stride=(1, 1), padding=(1, 1))\n",
              "  (conv512): Conv2d(360, 512, kernel_size=(3, 3), stride=(1, 1), padding=(1, 1))\n",
              "  (pool): MaxPool2d(kernel_size=2, stride=2, padding=0, dilation=1, ceil_mode=False)\n",
              "  (avgpool): AvgPool2d(kernel_size=2, stride=2, padding=0)\n",
              "  (flat): Flatten(start_dim=1, end_dim=-1)\n",
              "  (linear): Linear(in_features=2048, out_features=2, bias=True)\n",
              ")"
            ]
          },
          "execution_count": 44,
          "metadata": {},
          "output_type": "execute_result"
        }
      ],
      "source": [
        "model = to_device(ResNet9(3,2),device)\n",
        "model"
      ]
    },
    {
      "cell_type": "markdown",
      "metadata": {},
      "source": [
        "### Training Function"
…
